…
NotebookApp.rate_limit_window=3.0 (secs)</code></pre>
<p>要加载模型权重，您需要先创建相同模型的实例，然后使用 load_state_dict() 方法加载参数</p>
<figure class="highlight python"><table><tr><td class="code"><pre><span class="line">model = models.vgg16() <span class="comment"># we do not specify pretrained=True, i.e. do not load default weights</span></span><br><span class="line">model.load_state_dict(torch.load(<span class="string">&#x27;model_weights.pth&#x27;</span>))</span><br><span class="line">model.<span class="built_in">eval</span>()</span><br></pre></td></tr></table></figure>
<pre><code>VGG(
  (features): Sequential(
    (0): Conv2d(3, 64, kernel_size=(3, 3), stride=(1, 1), padding=(1, 1))
    (1): ReLU(inplace=True)
    (2): Conv2d(64, 64, kernel_size=(3, 3), stride=(1, 1), padding=(1, 1))
    (3): ReLU(inplace=True)
    (4): MaxPool2d(kernel_size=2, stride=2, padding=0, dilation=1, ceil_mode=False)
    (5): Conv2d(64, 128, kernel_size=(3, 3), stride=(1, 1), padding=(1, 1))
    (6): ReLU(inplace=True)
    (7): Conv2d(128, 128, kernel_size=(3, 3), stride=(1, 1), padding=(1, 1))
    (8): ReLU(inplace=True)
    (9): MaxPool2d(kernel_size=2, stride=2, padding=0, dilation=1, ceil_mode=False)
    (10): Conv2d(128, 256, kernel_size=(3, 3), stride=(1, 1), padding=(1, 1))
    (11): ReLU(inplace=True)
    (12): Conv2d(256, 256, kernel_size=(3, 3), stride=(1, 1), padding=(1, 1))
    (13): ReLU(inplace=True)
    (14): Conv2d(256, 256, kernel_size=(3, 3), stride=(1, 1), padding=(1, 1))
    (15): ReLU(inplace=True)
    (16): MaxPool2d(kernel_size=2, stride=2, padding=0, dilation=1, ceil_mode=False)
    (17): Conv2d(256, 512, kernel_size=(3, 3), stride=(1, 1), padding=(1, 1))
    (18): ReLU(inplace=True)
    (19): Conv2d(512, 512, kernel_size=(3, 3), stride=(1, 1), padding=(1, 1))
    (20): ReLU(inplace=True)
    (21): Conv2d(512, 512, kernel_size=(3, 3), stride=(1, 1), padding=(1, 1))
    (22): ReLU(inplace=True)
    (23): MaxPool2d(kernel_size=2, stride=2, padding=0, dilation=1, ceil_mode=False)
    (24): Conv2d(512, 512, kernel_size=(3, 3), stride=(1, 1), padding=(1, 1))
    (25): ReLU(inplace=True)
    (26): Conv2d(512, 512, kernel_size=(3, 3), stride=(1, 1), padding=(1, 1))
    (27): ReLU(inplace=True)
    (28): Conv2d(512, 512, kernel_size=(3, 3), stride=(1, 1), padding=(1, 1))
    (29): ReLU(inplace=True)
    (30): MaxPool2d(kernel_size=2, stride=2, padding=0, dilation=1, ceil_mode=False)
  )
  (avgpool): AdaptiveAvgPool2d(output_size=(7, 7))
  (classifier): Sequential(
    (0): Linear(in_features=25088, out_features=4096, bias=True)
    (1): ReLU(inplace=True)
    (2): Dropout(p=0.5, inplace=False)
    (3): Linear(in_features=4096, out_features=4096, bias=True)
    (4): ReLU(inplace=True)
    (5): Dropout(p=0.5, inplace=False)
    (6): Linear(in_features=4096, out_features=1000, bias=True)
  )
)</code></pre>
<h4 id="注意一定要在预测之前调用-model.eval-方法以将-dropout-和批量归一化层设置为评估模式-不这样做会产生不一致的推理结果">注意：一定要在预测之前调用 model.eval() 方法，以将 dropout 和批量归一化层设置为评估模式。 不这样做会产生不一致的推理结果。</h4>
<p>在加载模型权重时，我们需要先实例化模型类，因为该类定义了网络的结构。 我们可能希望将此类的结构与模型一起保存，在这种情况下，我们可以将模型（而不是 model.state_dict()）传递给保存函数：</p>
<figure class="highlight python"><table><tr><td class="code"><pre><span class="line">torch.save(model, <span class="string">&#x27;model.pth&#x27;</span>)</span><br></pre></td></tr></table></figure>
…
